microservices-rag/tests/data/test_embedding_storage/embeddings/88f381d6-5d36-483c-b6b4-3b26ccf0e448_vectors.npy (npy, 4736 bytes, 1 tensors)

array f4 [3, 384]
0.05003175 0.091075204 0.0056543406 0.109483935 -0.04354038 0.055961993 0.066815205 -0.016497103
-0.0019135845 -0.035209276 0.07805496 -0.07424738 0.0047731586 0.011800369 -0.03366254 -0.014291449
-0.0055744783 -0.05007569 -0.00505403 0.0015491322 0.014787345 -0.051759265 0.02064262 0.057977665
-0.053045783 0.006639743 -0.010455348 -0.008344034 0.030414473 -0.008908152 -0.01699877 0.0112319365
0.15964074 -0.03711873 0.0852701 -0.0702033 0.014608609 -0.015244744 0.009709846 0.03228305
-0.08413182 -0.063003264 0.023223186 -0.007735894 0.04302652 -0.022312155 -0.021961642 0.032925494
0.023458038 -0.010340266 -0.06690577 0.02136851 -0.06425442 0.0018748689 0.0017521429 -0.0028029552
0.049637288 -0.013427673 -0.026471348 -0.038706727 0.016853528 0.021226788 0.017568644 0.020346021
-0.022479568 0.04998726 0.05345004 0.037184086 -0.018341905 0.058723524 0.018861387 -0.084432036
0.014651253 -0.034504354 0.020650927 -0.07258935 0.009035371 0.0071817045 -0.03171636 0.034138374
-0.050497375 0.012466556 -0.02597792 0.018790668 0.04474528 -0.009498205 -0.049406365 0.009346754
0.00046348225 -0.03762089 -0.10174719 -0.040179327 -0.0714773 0.0050076935 -0.08133962 0.0077746185
0.006723063 -0.08688 0.036332972 0.009541009 -0.010455701 -0.008201393 0.0069407052 0.069792286
-0.08129899 -0.020234684 0.061366 0.024161406 0.034019087 0.025226783 -0.040379908 -0.026250025
-0.073269 -0.022717828 0.12454218 0.027276998 0.08507669 -0.009835286 -0.10025906 0.11657053
0.06782329 0.009714742 -0.089536026 0.0083875805 -0.080982395 -0.044033576 0.09515827 -9.590337e-35
-0.05283211 -0.043211367 -0.018247815 -0.043644093 -0.09616327 -0.0150191365 0.047344156 -0.017829344
-0.051847283 0.1053919 -0.013764562 0.097578116 0.01937607 0.016517099 -0.0129657155 0.009615903
-0.0477386 -0.005851475 0.10317516 -0.07065654 0.015677577 -0.03330523 -0.012361733 -0.03960168
0.024246488 -0.06911164 0.013242101 0.004776876 0.010754546 0.035057817 0.019143203 0.00026225104
0.0041608694 -0.013894101 -0.025732843 0.0020084186 0.010926113 0.10560812 0.03937832 0.07790983
0.042784736 0.00445354 -0.045844004 -0.058328502 0.08859614 0.009751077 0.034359436 -0.04056001
0.018345669 -0.016148135 -0.0108700795 0.015190323 -0.09454207 0.03333409 0.12683906 -0.018600727
0.033971764 0.06296045 -0.10556749 -0.030525137 0.0042935815 -0.09821743 -0.08687045 0.009163962
-0.12885809 -0.028073946 -0.0079266755 -0.027163213 -0.03254378 -0.0238656 -0.18309326 0.039324913
0.04294802 0.00072379253 -0.11764793 -0.0617049 -0.04834696 0.09659113 -0.011822132 0.016717354
-0.066000864 -0.04667182 0.028144076 0.01553377 0.030701952 0.10940712 0.014488717 -0.037374716
0.016974041 0.009839632 -0.059784677 -0.0023066683 0.06684139 0.047792643 0.077398956 -2.5080114e-33
-0.045390513 0.031532295 -0.09764909 -0.046315867 -0.033098813 0.01733888 -0.040917974 0.07010625
-0.026159696 0.055486135 -0.013461537 -0.035893682 -0.020828769 -0.021338178 -0.009253797 -0.011025518
-0.00020295024 0.028019214 -0.013516831 0.066577815 -0.013398338 0.0047554476 0.07699569 -0.062024362
-0.00086069154 0.03242015 0.107991144 -0.009472082 0.055058546 -0.0132259065 -0.05750559 -0.02658942
00000000: 18ee 4c3d a385 ba3d 0c48 b93b 1d39 e03d
00000010: 6657 32bd 6738 653d 69d6 883d ef24 87bc
00000020: 3ed1 faba 9a37 10bd 47db 9f3d 030f 98bd
00000030: 2868 9c3b 5656 413c bbe1 09bd af26 6abc
00000040: 1daa b6bb 2b1c 4dbd 479c a5bb 400c cb3a
00000050: 9f46 723c 8601 54bd b61a a93c fd79 6d3d
00000060: 8946 59bd 3492 d93b e84c 2bbc 6ab5 08bc
00000070: c627 f93c 7ff3 11bc 0141 8bbc 2806 383c
00000080: dd78 233e cf09 18bd 17a2 ae3d bfc6 8fbd
00000090: f258 6f3c 17c5 79bc 0c16 1f3c 3b3b 043d
000000a0: 4e4d acbd db07 81bd 8d3e be3c 627d fdbb
000000b0: 943c 303d fbc7 b6bc e7e8 b3bc e2dc 063d
000000c0: 122b c03c 386a 29bc e405 89bd 030d af3c
000000d0: d297 83bd 29be f53a 29a8 e53a c9b1 37bb
000000e0: 7850 4b3d beff 5bbc 71da d8bc f28a 1ebd
000000f0: 6910 8a3c cde3 ad3c 1eec 8f3c b3ac a63c
00000100: 1227 b8bc 71bf 4c3d 6eee 5a3d 574e 183d
00000110: c341 96bc 1488 703d 3283 9a3c b4ea acbd
00000120: cf0b 703c 7054 0dbd 222c a93c baa9 94bd
00000130: 1809 143c 8154 eb3b 04e9 01bd aed4 0b3d
00000140: 56d6 4ebd 8740 4c3c a6cf d4bc e3ee 993c
00000150: d446 373d 5c9e 1bbc 545e 4abd 2123 193c
00000160: 89ff f239 5d18 1abd d560 d0bd 1493 24bd
00000170: b162 92bd 9417 a43b 6395 a6bd 3ac2 fe3b
00000180: 244d dc3b 24ee b1bd e2d1 143d e451 1c3c
00000190: 634e 2bbc 235f 06bc db6e e33b 42ef 8e3d
000001a0: 1680 a6bd 35c3 a5bc ea5a 7b3d 24ee c53c
000001b0: 9957 0b3d 66a8 ce3c 6765 25bd 4b0a d7bc
000001c0: 0f0e 96bd bd1a babc f80f ff3d 0374 df3c
000001d0: b03c ae3d 2e24 21bc 9f54 cdbd 88bc ee3d
000001e0: f0e6 8a3d 952a 1f3c aa5e b7bd 106c 093c
000001f0: 19da a5bd 8d5c 34bd 57e2 c23d 74f4 fe86
00000200: 7c66 58bd 67fe 30bd 717c 95bc 26c4 32bd
00000210: 40f1 c4bd d312 76bc f2eb 413d d80e 92bc
00000220: d15d 54bd b5d7 d73d c284 61bc 09d7 c73d
00000230: 90ba 9e3c de4e 873c 276e 54bc 058c 1d3c
00000240: 8d89 43bd bbbd bfbb 804d d33d 60b4 90bd
00000250: 436e 803c 116b 08bd de88 4abc 5f35 22bd
00000260: 92a0 c63c 678a 8dbd 66f5 583c 5787 9c3b
00000270: d633 303c c998 0f3d 35d2 9c3c bd7e 8939
00000280: e757 883b 15a4 63bc afcd d2bc ac9f 033b
00000290: 7103 333c 1249 d83d 294b 213d 308f 9f3d
000002a0: 0c3f 2f3d 00ef 913b ecc6 3bbd dee9 6ebd
000002b0: e571 b53d fbc2 1f3c 7bbc 0c3d 4122 26bd
000002c0: a849 963c 1849 84bc 6b18 32bc d5e0 783c
000002d0: 469f c1bd 5489 083d 19e2 013e 8d60 98bc
000002e0: fa25 0b3d 69f1 803d c533 d8bd da0f fabc
000002f0: 2cb1 8c3b 3826 c9bd 22e9 b1bd 7124 163c
00000300: 60f3 03be 55fb e5bc e3de 01bc 6385 debc
00000310: a04c 05bd ca81 c3bc cd7c 3bbe 2913 213d
00000320: 43ea 2f3d e5bc 3d3a 66f1 f0bd 47be 7cbd
00000330: 7607 46bd 92d1 c53d 9eb1 41bc d5f2 883c
00000340: 762b 87bd f32a 3fbd 688e e63c 5b81 7e3c
00000350: a982 fb3c d710 e03d 1562 6d3c 3b16 19bd
00000360: 250d 8b3c 6836 213c c7e0 74bd 792b 17bb
00000370: 24e4 883d 38c2 433d 5883 9e3d 815b 5089
00000380: 67eb 39bd 0228 013d 3ffc c7bd b5b5 3dbd
00000390: 9f92 07bd 440a 8e3c 9b99 27bd de93 8f3d
000003a0: dc4c d6bc 6e45 633d c78d 5cbc 4105 13bd
000003b0: 18a1 aabc 67cd aebc 3d9d 17bc 60a4 34bc
000003c0: 0acf 54b9 8d88 e53c b375 5dbc f359 883d
000003d0: b484 5bbc 96d3 9b3b ebaf 9d3d 420d 7ebd
000003e0: 08a0 61ba feca 043d 762a dd3d cb30 1bbc
000003f0: 1285 613d 79b1 58bc fb8a 6bbd 0ed2 d9bc
